data/EE800data/mnist_wfloat/layer2_fw.npy (npy, 5248 bytes, 1 tensors)

array f4 [1280]
000000 23 0a 9e 3d 37 72 66 3e cc 75 97 bc 86 a0 79 be
       0.07716777 0.22504507 -0.018488787 -0.24377641
000010 ac 9b 9a 3d 95 f7 77 3e a2 48 96 bd 71 7d 39 3e
       0.07549223 0.24215539 -0.07338072 0.18114258
000020 7c 37 20 3e 8b 71 cf be 3f 1f 5c be 8f 31 57 3e
       0.15646166 -0.40516314 -0.21496294 0.21014999
000030 fb b3 8d be bb 2b a7 be 76 3d 9d bd 26 43 38 3c
       -0.27676377 -0.3265055 -0.07677738 0.011246478
000040 af e0 fc be d9 e8 11 3d 73 46 88 be 27 c1 b3 bc
       -0.4939017 0.03562245 -0.26616248 -0.021942688
000050 bf 6c 1f 3e 2d f8 13 be de 9a ac be c6 82 52 3e
       0.15568827 -0.1445014 -0.33711904 0.20557699
000060 45 ba 72 3e 8a 90 5a 3e 9d 66 42 3c c8 4e d1 3d
       0.23703869 0.213442 0.011865285 0.102201045
000070 f1 37 0f 3e 53 bb 22 bd 48 e2 41 be 4a fa b8 be
       0.13986184 -0.039729428 -0.18933976 -0.36128455
000080 ab b9 f0 be 4b c3 e5 3e a5 70 d1 bd 6b 0c 0e be
       -0.47016653 0.4487556 -0.10226563 -0.13871925
000090 13 4f 7b 3e 3f 88 aa bd a2 b1 1b be ee 65 91 be
       0.24541883 -0.08326768 -0.1520448 -0.2839808
0000a0 d5 a7 90 be 0d 3d 50 3d 37 40 54 be 00 80 08 bf
       -0.28253046 0.050839473 -0.20727621 -0.5332031
0000b0 e6 27 53 3e 67 7e 84 bd e7 4d cf be b9 61 d5 bd
       0.20620689 -0.06469422 -0.40489122 -0.1041903
0000c0 07 23 dd be dd df 9d be 27 fc 94 bd 6e ef 15 3e
       -0.43190786 -0.30834857 -0.07274657 0.14642116
0000d0 23 ad 90 3e a4 39 25 3e 4a af 69 be 28 49 a7 bd
       0.28257093 0.1613527 -0.22820774 -0.0816825
0000e0 f1 25 f4 3c f2 c6 55 3e ba 7f c0 bd 72 de 85 bd
       0.029803248 0.20876673 -0.09399362 -0.06536569
0000f0 58 ac b7 3d 62 e6 f7 3d a2 2d 80 3e 3b 83 9b 3d
       0.08968419 0.12104489 0.25034815 0.075933896
000100 f8 97 89 3d f6 d0 31 3e 72 02 83 3d 8e cd d7 3d
       0.06718439 0.17364869 0.06396951 0.10537253
000110 fe 4c 58 3e 38 c3 cb be cb c6 58 be 12 64 c5 be
       0.2112312 -0.39797378 -0.21169583 -0.3855291
000120 2d 56 40 3d bc f2 4a be fa 62 e8 3d fd db 4d 3d
       0.046957184 -0.19819158 0.11347003 0.050258625
000130 63 5c 0f 3e 5d 97 4c 3e 69 9e 4a 3e ab 4d 65 3e
       0.14000086 0.19979616 0.19786991 0.22392909
000140 aa 1b 53 3e da 4e 27 3e 0b a9 65 bd bd 5e 00 3e
       0.20616022 0.16338673 -0.056069415 0.1253614
000150 08 bb fd bd 5b 22 34 be 3c 3e b2 be c8 a2 d5 be
       -0.12389189 -0.1759123 -0.34813106 -0.41725755
000160 a1 b9 73 3e 4e 9b 0b 3e 6c 20 5d be d0 9c 4a 3b
       0.2380128 0.13633463 -0.21594399 0.0030916221
000170 4c d0 e7 bc 54 e0 01 be 70 11 4e be 88 10 11 3e
       -0.028297566 -0.1268323 -0.2012384 0.14166462
000180 d9 e5 e0 3d 4f 04 b8 3e 59 c7 96 be 62 0b 24 be
       0.1098134 0.35940787 -0.29448965 -0.16019967
000190 5e 02 49 3e bb 6d a8 3d b7 c4 b2 be 93 ba 96 be
       0.1962981 0.082240544 -0.34915707 -0.2943922
0001a0 3a f9 a8 3c c2 c4 97 be 52 d8 de be a2 e9 80 3e
       0.020626653 -0.29642302 -0.43524414 0.25178248
0001b0 22 db d1 bc 61 94 4d 3e d0 1d c1 bd 72 2a c2 3d
       -0.025617186 0.20076133 -0.094295144 0.09480752
0001c0 ba 11 68 be 71 c5 ca 3d 42 cc 8e be 0b 74 d0 be
       -0.22663012 0.0990094 -0.2789021 -0.40713534
0001d0 30 7e 2d 3e 6d 10 bc bd c4 26 6b bc 79 a0 8c be
       0.16942668 -0.091828205 -0.014352504 -0.2746618
0001e0 8f b4 00 bf 1a a6 15 3e 85 d3 e2 bd 11 a5 1b be
       -0.5027551 0.14614144 -0.110755004 -0.15199687
0001f0 11 05 30 3e c6 da b3 bd c2 05 7f 3d 16 8c a6 be
       0.17189433 -0.08781962 0.06226135 -0.32528752
000200 01 7b 0c be a1 2a 21 bd a9 be 88 bd c8 32 8c be
       -0.13718797 -0.039347295 -0.066769905 -0.27382493
000210 a5 c6 2a be 66 43 00 3d f3 46 79 bc 60 2b 1d 3d
       -0.1667734 0.031314276 -0.0152146695 0.038371444
000220 6c 7f 89 be c6 bd 24 3d d2 21 05 be d9 52 36 3e
       -0.26855028 0.040220045 -0.13001183 0.17805041
000230 7c 96 a1 bd 84 80 01 bd 22 ba 44 3e 82 91 5b be
       -0.07890031 -0.031616703 0.19211629 -0.21442226
000240 5d c2 22 be 8d 7e 9c be ef 20 39 3e b8 c6 a7 be
       -0.15894456 -0.305653 0.1807897 -0.32768798
000250 1b ac 83 be f2 4e 4c 3e f6 25 17 3d 37 32 20 be
       -0.25717244 0.1995199 0.036901437 -0.15644155
000260 d0 2e 19 3e 97 c6 37 3e 6b 69 52 3e 4d 81 47 3d
       0.14959264 0.1794685 0.20548026 0.048707295
000270 84 06 69 3d f8 fa 33 be 88 b9 6e be 9c 4b 0f be
       0.05689098 -0.17576206 -0.23312962 -0.13993686
000280 da 0b fa 3d dc df 07 3f 92 09 2c 3d 3c 01 89 3e
       0.12209292 0.5307596 0.042001314 0.26758754
000290 24 ff a5 3e 0b 1a a7 3d ae 13 e5 be fb 2d 12 3e
       0.3242122 0.08159264 -0.44741577 0.14275353
0002a0 58 8a 67 3e df 46 ca be 63 be 9b 3d 54 25 95 3d
       0.22611368 -0.39507195 0.07604673 0.072825104
0002b0 80 92 d0 3e b4 4a 92 3d 9d e8 2a be 0e 7e 85 bd
       0.4073677 0.07143155 -0.16690297 -0.06518184
0002c0 c7 1a 50 3e a3 9d d3 bd 25 9d 6f bd a9 e8 b4 bd
       0.20322715 -0.10332801 -0.058499474 -0.08833439
0002d0 72 f0 b7 bd 06 49 79 3e 53 7e 88 be 24 f3 fb be
       -0.08981408 0.24344262 -0.26658878 -0.4920894
0002e0 d8 fd 7e bd e4 bc 92 3e 78 44 22 3d ba e1 75 be
       -0.062253803 0.28659737 0.03961608 -0.24011889
0002f0 18 71 ed be 1c 63 d8 3c 9b 99 32 3e 73 00 bf 3e
       -0.46375346 0.026414447 0.17441408 0.3730503
000300 cf d6 3d 3e a1 52 b8 3d fe d0 89 be bb 58 98 be
       0.18538974 0.09000135 -0.2691726 -0.29755196
000310 fa d7 b3 be c3 2e 85 bd 56 ff 08 3d c5 81 5c 3e
       -0.35125715 -0.0650306 0.033446632 0.21533878
000320 8e ca f1 3c f8 5b 56 be 50 cd 0a 3d a3 d6 0e be
       0.02951553 -0.20933521 0.033887208 -0.13949065
000330 92 98 8d be 47 b9 32 be 57 6c fe bd 24 e0 36 be
       -0.27655464 -0.1745349 -0.12423008 -0.1785894
000340 33 46 4a be 6d e9 4f be 4b e2 1b 3e cf 60 ec bd
       -0.19753341 -0.20303889 0.15223043 -0.11541902
000350 90 cb 86 be c3 fc 63 be 79 8c 74 3e e2 ed 86 3e
       -0.2632718 -0.2226439 0.23881711 0.26353365
000360 0e 15 fe 3d c6 0e 20 be 1f 01 cf be c7 f7 fc bd
       0.124063596 -0.15630636 -0.40430543 -0.12351947
000370 07 e5 45 be dc 73 e9 3d fe 9a 3d 3e 6e 9e ce bd
       -0.19325648 0.113990515 0.18516156 -0.10088812
000380 36 62 00 3d fb 99 4e 3e 9c 67 f7 bd cd af dd be
       0.03134366 0.20175926 -0.12080309 -0.43298188
000390 37 99 5d 3e 6f ae 86 bd 58 07 d1 3d 4a 94 c0 3d
       0.21640478 -0.06576239 0.10206479 0.09403284
0003a0 ab dc a7 be 92 57 fb be 70 7c 02 bd a9 24 79 3e
       -0.32785544 -0.49090248 -0.031856954 0.24330391
0003b0 68 36 cc 3d 99 56 43 3e 23 74 49 be 70 b4 5b be
       0.09971315 0.19076003 -0.19673209 -0.2145555
0003c0 8b b0 0a 3e 15 d2 32 be 26 bf 37 be fe a7 0a 3e
       0.13543908 -0.17462952 -0.17944011 0.13540646
0003d0 8b a4 36 3e 28 9f 40 3c d6 40 b4 3d 06 88 1f 3e
       0.17836206 0.011756696 0.08801429 0.15579233
0003e0 5e f1 85 3e a6 46 97 be b1 78 a4 be 7b 15 7d 3e
       0.2616071 -0.29546088 -0.3212333 0.24715225
0003f0 6a 71 17 bf e3 4a 06 3e 22 a2 5d 3e b5 26 e3 bd
       -0.5915743 0.13114505 0.2164388 -0.11091367
