data/EE800data/mnist_wfloat/layer0_fw.npy (npy, 802944 bytes, 1 tensors)

array f4 [200704]
0	0x3d2c0e34	0.042005733
1	0x3d80a51c	0.06281492
2	0xbd2dc742	-0.042426355
3	0xbc100ee0	-0.008792609
4	0x3d80068e	0.0625125
5	0x3d016aa6	0.03159585
6	0x3b4bb4a0	0.0031083003
7	0xbc9c1294	-0.019051827
8	0x3c8d8e9c	0.017279916
9	0x3d060b40	0.032725573
10	0x3cca6418	0.024705932
11	0x3c9048c0	0.017612815
12	0x3cb312e8	0.021859601
13	0xbd6f12f2	-0.058367677
14	0x3d689d08	0.05679038
15	0x3d654288	0.055971652
16	0xbd22f0c7	-0.039780404
17	0xbb4ca060	-0.003122352
18	0xbb39a4c0	-0.0028326958
19	0x3d1c484c	0.038154885
20	0x3cd5a6d8	0.026080534
21	0xbcdfcb60	-0.027318656
22	0x3d25d84a	0.040489472
23	0x3d65fa34	0.056146815
24	0x3d1a906c	0.037735388
25	0x3d63c224	0.05560507
26	0x3d86b544	0.065775424
27	0x3d5c0058	0.053711265
28	0x3d58b1d0	0.05290395
29	0x3cbb503c	0.022865407
30	0xbc2b6970	-0.01046215
31	0xbd0eb90a	-0.034844436
32	0xbd98cc42	-0.07460834
33	0x3d3c24fc	0.04593371
34	0xbd434906	-0.047677062
35	0xbd1f7d58	-0.038937896
36	0xbbd3e4f0	-0.0064665005
37	0x3c1107cd	0.0088519575
38	0xbd63202a	-0.055450596
39	0x3cdeb0a7	0.027183844
40	0xbbd8dda9	-0.006618221
41	0x3c5dacde	0.013529984
42	0xbd1cbd7a	-0.038266636
43	0xbcb0eff2	-0.02159879
44	0xbdc619cc	-0.09672889
45	0x3c05c4b1	0.008164571
46	0x3a95efe4	0.0011439291
47	0x3d92e627	0.07172804
48	0x3db3352a	0.087503746
49	0x3de97670	0.11399543
50	0xbc4c2d42	-0.012461962
51	0xbcc62179	-0.024185883
52	0xbc94ac98	-0.018148705
53	0x3d157858	0.036491722
54	0xbd3b4268	-0.045717627
55	0x3d06bf74	0.032897428
56	0xbc39c600	-0.011338711
57	0x3d841508	0.06449324
58	0xbd9b62eb	-0.075872265
59	0xbd4efe08	-0.05053523
60	0xbdbe8644	-0.09302953
61	0xbccfc95d	-0.025364572
62	0x3d66a626	0.056310795
63	0xbcdfcf0f	-0.027320413
64	0xbcac5dee	-0.021040883
65	0xbd9b4421	-0.07581354
66	0xbd9ad54f	-0.07560217
67	0xbdbba750	-0.09162772
68	0xbb0848f3	-0.0020795434
69	0x3d1853ef	0.03718942
70	0x3d3e0c0c	0.046398208
71	0x3db9ce2d	0.09072528
72	0x3dd94be4	0.10610178
73	0x3e2c6b96	0.16837916
74	0x3dfa4588	0.12220293
75	0x3d9708c2	0.07374717
76	0x3dac9020	0.08425927
77	0xbca602c8	-0.020264998
78	0x3e15f5ca	0.14644542
79	0xbbb68d73	-0.0055710613
80	0xbd4dbc66	-0.0502285
81	0xbdbd80c0	-0.09253073
82	0xbcd6ee3e	-0.02623665
83	0x3d8a0e90	0.06741059
84	0xb9bc2900	-0.00035888702
85	0x3cdcbbe4	0.026945062
86	0xbe207a7d	-0.15671726
87	0xbdc978a2	-0.09837462
88	0xbb0a328a	-0.0021087253
89	0x3da8ad46	0.08236174
90	0xbdabd722	-0.08390643
91	0xbda27e2b	-0.07934221
92	0xbd937cac	-0.07201514
93	0xbd66feda	-0.05639539
94	0xbe599dca	-0.21251598
95	0xbe924983	-0.2857171
96	0xbe6cdbbf	-0.23130701
97	0xbd9843f9	-0.0743484
98	0x3d386b8f	0.04502445
99	0xbd38576b	-0.045005243
100	0xbde3c09a	-0.1112072
101	0x3e4c3d60	0.19945288
102	0x3c351234	0.011051703
103	0xbd996977	-0.07490819
104	0x3c893811	0.016750367
105	0x3e929ebc	0.2863673
106	0x3ec9dd18	0.39426494
107	0x3eb9d1cf	0.36292884
108	0x3b0f6c34	0.0021884562
109	0xbe04baef	-0.12961935
110	0xbccf2258	-0.025284931
111	0x3d756a88	0.05991605
112	0x3ccee150	0.025253922
113	0xbccd8c14	-0.025091209
114	0xbe1e13e3	-0.15437274
115	0xbe0ad314	-0.13557082
116	0x3c6a351a	0.014294887
117	0xbd28efec	-0.041244432
118	0xbd5085b1	-0.050908748
119	0xbe77b8d9	-0.24191608
120	0xbe25f016	-0.16204867
121	0x3d57ea60	0.05271375
122	0xbb16671c	-0.0022949642
123	0xbeaa62c8	-0.3327849
124	0xbec99c77	-0.39377186
125	0xbeaf59dc	-0.34248245
126	0xbe186393	-0.14881735
127	0xbdcfccbb	-0.10146471
128	0x3d302753	0.043006252
129	0x3dba53df	0.090980284
130	0x3d557380	0.052112103
131	0x3d79522a	0.060869373
132	0x3d744288	0.05963376
133	0x3e381cd4	0.17979747
134	0x3dc0a937	0.09407275
135	0x3e7ed439	0.24885644
136	0x3e65096c	0.22366875
137	0x3d94b3be	0.072608456
138	0xbd62e819	-0.055397127
139	0xbcb06f63	-0.021537488
140	0x3d8a53e8	0.06754285
141	0x3d87c43c	0.066292256
142	0xbe1a509a	-0.1506981
143	0xbe1d3ac8	-0.15354455
144	0xbd9bedf9	-0.07613749
145	0xbd8a9dba	-0.06768365
146	0xbdf2903e	-0.11843918
147	0xbec139a4	-0.3773929
148	0xbe3496a1	-0.17635585
149	0xbca665f8	-0.020312294
150	0xbd68e37c	-0.05685757
151	0xbd845df2	-0.06463231
152	0xbd3b28bd	-0.045693148
153	0xbe085778	-0.13314617
154	0xbe14c204	-0.14527136
155	0xbda3d390	-0.07999337
156	0xbe11bd53	-0.14232378
157	0x3cbf60f4	0.02336166
158	0xbc94d019	-0.018165635
159	0x3dab332f	0.08359372
160	0x3e26f8ab	0.16305797
161	0xbd9c367b	-0.07627579
162	0xbded48ad	-0.115861274
163	0xbdd868dc	-0.10566875
164	0x3d4fd13a	0.050736643
165	0xbd78cf4b	-0.060744565
166	0xbd1c590e	-0.038170867
167	0xbbd019ee	-0.0063507473
168	0x3c8735b4	0.0165051
169	0xbd91f5f3	-0.07126989
170	0x3d56e965	0.052468676
171	0x3d6dc322	0.05804742
172	0x3cae54a4	0.021280594
173	0xbde2600b	-0.11053475
174	0xbe1d01e5	-0.15332754
175	0xbe5c4682	-0.21511272
176	0xbddaf94b	-0.1069208
177	0x3d21464a	0.039373673
178	0xbe0b04cd	-0.1357605
179	0xbd085251	-0.033281628
180	0x3d217133	0.039414596
181	0xbd09390f	-0.03350168
182	0x3d92bd4e	0.07165013
183	0x3dc1d115	0.09463707
184	0xbded5c1b	-0.11589833
185	0x3ccf494d	0.025303507
186	0x3e7a8797	0.24465786
187	0x3e0a858e	0.1352751
188	0x3d8f1f2e	0.06988369
189	0x3d0f898e	0.03504329
190	0x3cf58900	0.029972553
191	0x3d406b70	0.04697746
192	0x3e18cfc8	0.14923012
193	0x3d0593b7	0.032611575
194	0x3ccd5f3e	0.02506983
195	0x3c135c2b	0.0089941425
196	0x3d3b6ab8	0.04575607
197	0xbe232764	-0.15932995
198	0xbd6644d6	-0.05621799
199	0x3d98c1f7	0.07458871
200	0x3ce985fd	0.028506273
201	0xbd2e2e2a	-0.042524494
202	0xbddfc692	-0.10926546
203	0xbe33f3b0	-0.17573428
204	0xbc2e5286	-0.010639792
205	0xbd2eeb85	-0.042705078
206	0xbe0c3794	-0.13693076
207	0x3d47f997	0.04882201
208	0x3d2d3fde	0.042297237
209	0x3df52277	0.11969464
210	0x3d2d9065	0.042374033
211	0x3e0148a2	0.12625363
212	0xbd8a6453	-0.067574166
213	0x3da2c14c	0.07947025
214	0x3e456272	0.19275835
215	0x3d89bac6	0.06725077
216	0x3dcec9d6	0.10097091
217	0x3dd90219	0.10596103
218	0x3db1cfae	0.0868219
219	0x3de18f2d	0.11013637
220	0x3dab845b	0.08374854
221	0xbaccd0e2	-0.0015626217
222	0xbcbf167a	-0.023326147
223	0xbd56f0a7	-0.052475598
224	0xbd4cabf3	-0.04996867
225	0xbe0be887	-0.13662921
226	0x3d040a88	0.032236606
227	0x3d2e6a32	0.042581744
228	0x3dd75943	0.10515072
229	0xbcaa938e	-0.020822313
230	0x3c70f71b	0.014707352
231	0xbd0a764d	-0.033804227
232	0xbab04102	-0.0013447108
233	0xbe4e9cb0	-0.20176959
234	0xbdf008df	-0.11720442
235	0x3d91ce5c	0.07119438
236	0x3dd3b469	0.10337145
237	0x3e18502c	0.14874333
238	0x3d03b0d1	0.032151047
239	0x3c694cce	0.014239503
240	0xbd3a82f0	-0.045535028
241	0x3bf7be7b	0.007560549
242	0x3d1dda0a	0.038538016
243	0x3ddff3c9	0.1093517
244	0xbd91e023	-0.07122829
245	0xbd86ae69	-0.06576235
246	0xbc91456f	-0.017733304
247	0x3d8854ea	0.06656821
248	0x3e67f449	0.22651781
249	0x3e3f9842	0.18710425
250	0x3e2a04c8	0.16603386
251	0xbd5b137f	-0.05348539
252	0xbd01d1a0	-0.031694055
253	0x3cda5d06	0.026655685
254	0xbce46e98	-0.027884766
255	0xbde01c52	-0.10942902
