data/EE800data/mnist_wfloat/layer1_fw.npy (npy, 131200 bytes, 1 tensors)

array f4 [32768]
0	0x3d083df3	0.033262204
1	0x3d34a345	0.04410102
2	0xbe80bb61	-0.2514296
3	0x3d7ba6c9	0.061438356
4	0xbd99113c	-0.0747399
5	0x3da6c211	0.08142484
6	0xbe134b58	-0.1438421
7	0x3ef9ffdf	0.48828027
8	0x3cb1e4b5	0.021715501
9	0xbd5c40b3	-0.05377264
10	0xbc28b50b	-0.01029707
11	0x3d49e016	0.04928597
12	0xbb565453	-0.003270407
13	0xbc158e9b	-0.009128238
14	0xbd231bab	-0.039821308
15	0x3d806e30	0.062710166
16	0xbdaa0c7b	-0.08303162
17	0x3d5f335d	0.054492343
18	0x3e1163c0	0.14198208
19	0xbcdcaa8c	-0.026936792
20	0x3e5976e0	0.21236753
21	0xbdaa0605	-0.083019294
22	0x3c92e08c	0.017929338
23	0x3de0a5a2	0.10969092
24	0x3e043118	0.12909353
25	0xbdbdf370	-0.09274948
26	0x3e5219dd	0.20517679
27	0xbc90d5aa	-0.017680008
28	0xbe13cba0	-0.14433146
29	0x3d5303e9	0.0515174
30	0xbe7b5b09	-0.24546446
31	0xbd93f902	-0.07225229
32	0x3d9dee02	0.07711412
33	0xbd56baa6	-0.052424096
34	0x3d8ab5dc	0.06772968
35	0xbe32a636	-0.17446217
36	0x3e47a8a1	0.1949792
37	0x3ed0ace5	0.40756908
38	0x3e49c361	0.19703437
39	0xbc1704d4	-0.00921746
40	0xbe2dfe73	-0.16991596
41	0xbe146c3e	-0.14494416
42	0x3c92a739	0.017902004
43	0x3cfc984a	0.030834336
44	0x3e18f7e6	0.14938316
45	0xbe6163b2	-0.22010687
46	0xbddd7a4c	-0.10814342
47	0x3e1a1054	0.15045291
48	0x3eb28b71	0.3487201
49	0xbe1a1b1b	-0.15049402
50	0x3b145bdc	0.002263776
51	0xbdb05bb3	-0.0861124
52	0xbddf57ac	-0.10905394
53	0xbde47e59	-0.111569114
54	0x3e19940b	0.1499788
55	0x3ddbe4b0	0.10736978
56	0x3d033fc7	0.032043245
57	0xbdf8b3c4	-0.121436626
58	0xbd33e048	-0.043915063
59	0x3e98cd1a	0.2984398
60	0xbdd4364c	-0.10361919
61	0xbd3f4b19	-0.046702478
62	0xbda221a2	-0.07916571
63	0x3cf67bbe	0.030088302
64	0xbe2c2e0e	-0.16814443
65	0x3e2daf9b	0.1696152
66	0x3da672de	0.08127378
67	0xbdb228f0	-0.086992145
68	0xbe7e55df	-0.24837445
69	0xbee01fee	-0.4377436
70	0xbd27f5e7	-0.041005995
71	0x3e20a790	0.1568892
72	0x3cca31ab	0.024681887
73	0x3d903850	0.07041991
74	0x3ca21679	0.019786106
75	0xbc735cee	-0.014853699
76	0xbcf24af3	-0.029576754
77	0xbc1701fb	-0.009216781
78	0x3e4a315f	0.19745396
79	0x3e591333	0.2119873
80	0x3dc0bf63	0.09411504
81	0x3cfe46d8	0.03103964
82	0xbd2ebc1e	-0.04265987
83	0x3e19b671	0.15011002
84	0x3e7b2dbe	0.24529168
85	0xbe209bdc	-0.15684456
86	0xbe6f7259	-0.23383464
87	0x3cbaec7e	0.022817846
88	0xbe06e8ce	-0.13174745
89	0xbe1e5840	-0.15463352
90	0x3d9a31ba	0.07529016
91	0xbd9b11a5	-0.07571725
92	0x3d1ef3b9	0.03880665
93	0xbd925c25	-0.071464814
94	0x3cc0e9fd	0.023549074
95	0x3d55326c	0.05205004
96	0x3e0e6ec5	0.13909443
97	0x3e0d4548	0.1379596
98	0xbe507c87	-0.20360003
99	0x3db183d6	0.08667724
100	0x3da497fa	0.080368
101	0x3c40ef0f	0.011775746
102	0xbe167209	-0.14691938
103	0x3df1e1dd	0.11810658
104	0x3d1318e6	0.035912417
105	0x3e2d3b01	0.1691704
106	0x3d8ae21c	0.06781408
107	0x3e64e8f0	0.22354484
108	0x3d9fa186	0.0779448
109	0xbe0d3518	-0.13789785
110	0x3badad17	0.005300175
111	0x3de63c1f	0.11241936
112	0xbdc44bc2	-0.09584762
113	0x3e0ae54c	0.13564032
114	0x3e239408	0.15974438
115	0x3dc9c400	0.09851837
116	0x3dee344f	0.11631071
117	0xbe3c6a86	-0.1840001
118	0x3c870a59	0.016484426
119	0xbda56948	-0.080767214
120	0x3e0ef6bd	0.1396131
121	0xbc26257f	-0.010140776
122	0x3d7af436	0.061268054
123	0xbe55066c	-0.20803231
124	0x3e5c74de	0.21528956
125	0xbe840720	-0.25786686
126	0xbda68874	-0.08131495
127	0xbd12d3de	-0.035846584
128	0xbd8c8b3b	-0.068624936
129	0xbda22b33	-0.07918396
130	0xbdc0f4f5	-0.09421722
131	0x3dae142f	0.084999435
132	0xbcb38df0	-0.021918267
133	0xbe868453	-0.2627283
134	0x3dac5e57	0.084164314
135	0xbdb3568a	-0.087567404
136	0x3ddea3f9	0.10871119
137	0x3e68e197	0.22742306
138	0x3d2e5c5c	0.04256855
139	0x3cbabc49	0.02279486
140	0xbe85fa0c	-0.26167333
141	0xbdd68d04	-0.10476115
142	0xb985990f	-0.00025481774
143	0xbd144623	-0.0361997
144	0x3bb470dc	0.005506618
145	0xbe13d445	-0.14436443
146	0x3e4379cc	0.1908943
147	0xbe439cfc	-0.19102854
148	0x3d31e3ba	0.043430068
149	0x3ad5e384	0.0016318415
150	0xbe04ef3c	-0.12981886
151	0xbe22ae9c	-0.1588692
152	0x3e201a87	0.1563512
153	0xbbaf2f14	-0.0053461883
154	0x3e02434d	0.12720986
155	0x3dd8aab4	0.10579434
156	0x3dc4e69e	0.09614299
157	0xbe5501b2	-0.20801428
158	0xbdff7aeb	-0.124746166
159	0xbdbe604a	-0.092957094
160	0x3e0422d6	0.12903914
161	0xbe4fb0e3	-0.2028232
162	0x3d02cc58	0.03193316
163	0x3e3972e0	0.18110228
164	0x3e11bdeb	0.14232604
165	0xbd8fca6d	-0.070210315
166	0xbe10454b	-0.14088933
167	0xbc9f0f4b	-0.019416472
168	0x3da09800	0.07841492
169	0xbe31af08	-0.17351925
170	0x3d83a37b	0.06427666
171	0x3b0fed12	0.0021961373
172	0x3e81ea22	0.25373942
173	0xbdb2e7c0	-0.08735609
174	0x3e00be13	0.12572508
175	0x3d211c7b	0.0393338
176	0xbd0f10a5	-0.034927983
177	0x3d2d3efb	0.04229639
178	0xbccf1937	-0.025280578
179	0x3e2c2ea7	0.16814671
180	0x3ddb082d	0.10694919
181	0x3dfc6ff9	0.123260446
182	0x3c76226e	0.015022857
183	0x3d6c041e	0.057621114
184	0xbb9d9441	-0.004808933
185	0x3eef82ae	0.46779388
186	0x3e52fded	0.20604677
187	0xbabe75db	-0.0014530973
188	0xbd3055fa	-0.043050744
189	0xbda75957	-0.08171337
190	0xbb8f982b	-0.0043821535
191	0xbc8b3378	-0.016992316
192	0xbc8413fc	-0.01612281
193	0xbe3bcd44	-0.18340021
194	0xbe40accb	-0.18815915
195	0x3e10cebd	0.14141364
196	0xbe28af6a	-0.16473165
197	0x3e1376a1	0.14400722
198	0xbc55efe9	-0.013057687
199	0xbe1b17c3	-0.15145783
200	0xbe2fa0a0	-0.17151117
201	0xbdbf5658	-0.09342641
202	0x3e380206	0.17969522
203	0xbe4bfee9	-0.1992146
204	0x3e28786a	0.16452184
205	0x3d9f58e8	0.077806294
206	0x3e28d396	0.16486964
207	0xbdb92b47	-0.090414576
208	0xbbe6a40b	-0.0070385984
209	0xbe50abf0	-0.20378089
210	0x3d646429	0.055759583
211	0xbcf3aa56	-0.029744308
212	0x3cc403b8	0.023927554
213	0x3e7fcd55	0.24980672
214	0x3e53c2ba	0.20679751
215	0xbe61b38b	-0.22041146
216	0x3e42d662	0.19027093
217	0xbd9e3a6f	-0.07725989
218	0xbbf146bd	-0.007363169
219	0x3de69bf1	0.11260212
220	0x3ca03e61	0.019560995
221	0x3e2a9324	0.16657692
222	0xbe0ff09f	-0.14056633
223	0xbe16cb2b	-0.1472594
224	0x3e3cc2d8	0.18433702
225	0xbe097593	-0.13423757
226	0xbe6c2e47	-0.23064528
227	0x3e18adde	0.14910075
228	0xbe50e220	-0.2039876
229	0xbe06e958	-0.13174951
230	0x3e03128b	0.12800042
231	0xbd6fe4a0	-0.058567643
232	0x3dd7e030	0.10540807
233	0x3d994b03	0.074850105
234	0xbdb3489a	-0.08754082
235	0xbe84f4fc	-0.25968158
236	0x3d83f820	0.064438105
237	0x3b1fd57b	0.002438872
238	0x3d3b6c91	0.045757834
239	0xbe36cd67	-0.17851792
240	0x3d54ac9a	0.05192242
241	0x3d03d2bf	0.032183405
242	0xbd3a18e2	-0.045433886
243	0x3de0daf0	0.10979259
244	0xbd335f4c	-0.043792054
245	0xbd098c98	-0.033581346
246	0x3dc52baf	0.096274726
247	0xbd9c77b9	-0.07640023
248	0x3c3ad2bd	0.011402783
249	0xbd2e49c5	-0.04255082
250	0x3e369c66	0.17833099
251	0xbded6bac	-0.115928024
252	0x3ea92979	0.33039454
253	0x3e54cef9	0.20782079
254	0xbad131ca	-0.0015960273
255	0xbdb3331a	-0.08749981
